models/saved_models/autoencoder.pth (torch, 96711 bytes, 12 tensors)

encoder.0.weight f4 [128, 8]
0.10850169 0.06455677 0.073006086 0.3253299 0.31968054 0.22341654 0.04131563 -0.2494632
0.34764895 0.029972587 -0.3423041 0.016243871 -0.01403787 -0.2045532 -0.05452842 0.0019665281
0.27511185 -0.062321566 -0.3159801 0.13935417 -0.2446649 0.23107356 0.03621845 -0.19477072
-0.12798257 -0.09853142 -0.14480995 0.015797349 -0.041699763 0.13181314 -0.18152782 0.20196457
0.36595717 -0.30039194 0.0054042344 0.3506053 -0.06408586 -0.06399495 0.15889539 -0.21298437
-0.14722103 0.21564429 -0.11428804 0.3498483 -0.036317896 -0.16137142 -0.1410074 -0.21589707
0.1410206 0.087560184 0.18313628 -0.20160554 0.10763914 -0.057300787 -0.1962634 0.21378615
0.054496292 0.050540365 -0.007593919 0.21597907 -0.33249936 0.2056302 -0.09172276 0.32960197
-0.2780887 0.11760572 0.07605211 -0.25313365 0.04364119 0.013236075 0.2873081 -0.12465716
0.18420044 -0.2761162 0.21413243 -0.079484046 0.01131175 -0.31569496 -0.2665954 0.07794189
0.24329345 0.37559265 -0.15411244 -0.10293568 0.04925168 -0.0017604323 0.2950776 0.10661155
0.16008583 -0.024530927 -0.32944548 -0.3026506 -0.20698713 0.12262874 -0.2989215 -0.3393842
0.30710322 -0.17057368 -0.06539884 -0.086911775 0.18536997 -0.09272622 -0.06405137 -0.22759846
0.2493683 -0.1744764 0.2793203 0.13059059 -0.29873106 -0.2589055 -0.26207864 0.33126357
-0.08551756 0.04068019 -0.1715206 0.013813622 0.07246933 -0.1972259 0.30405334 -0.07629587
0.3678908 -0.17161041 0.3499913 0.251186 0.16541465 0.35128403 -0.2072446 0.043029346
0.3341806 -0.20698892 -0.16946083 0.3264925 -0.08895232 0.24929874 -0.25142717 0.0663984
-0.22083628 0.13491784 0.22225344 0.14501438 -0.22605912 -0.008981758 -0.0957994 -0.03576916
0.17684612 -0.27374062 0.1470143 -0.15520139 -0.1993932 -0.17558873 0.095116675 0.10314571
-0.18095125 -0.06752743 -0.23938864 0.011437378 -0.035332333 -0.3020381 -0.24509676 -0.2792886
-0.1900288 -0.27587378 0.35579792 -0.05707305 0.044158306 0.2668804 -0.039771173 -0.22537458
-0.26088881 -0.12905751 -0.17712063 -0.21647196 0.33944345 0.14285128 0.07753595 0.30135652
-0.022729356 0.33274108 0.16984817 -0.27075568 0.20214431 -0.16461317 -0.2460065 0.19315264
0.22140099 -0.06642012 -0.12279287 0.33121607 -0.25612462 0.35076925 -0.02616014 -0.33558723
0.034726743 0.15168548 -0.15434025 -0.106058866 -0.22506507 0.023237906 -0.08064861 0.19042847
0.17381375 0.09239016 -0.21526195 0.34764555 0.09078903 0.29940566 0.1661972 -0.074723855
-0.35154554 -0.048185308 -0.15341587 -0.018661523 0.35045046 0.05530092 -0.18024993 -0.20224775
0.16459438 0.05276459 0.11773472 0.17614678 0.15959509 -0.09542383 0.25553533 0.33322322
-0.094511636 0.06793662 -0.24247883 -0.20716566 -0.2882932 -0.049475808 -0.09344153 -0.3277163
-0.24079123 0.16478711 -0.04143263 0.15020648 -0.24469367 -0.27639902 0.14250891 -0.32039234
0.19279224 0.064811565 0.15850027 -0.114012204 -0.26161334 -0.31832954 -0.37451226 0.0036453246
-0.31596962 -0.09935003 -0.022902282 -0.26150644 -0.2412125 -0.3096234 0.049051836 0.35887134
00000000: 2236 de3d 5736 843d 3784 953d a491 a63e
00000010: 2bad a33e 4ec7 643e 943a 293d 4873 7fbe
00000020: 0bff b13e 1289 f53c 7c42 afbe de11 853c
00000030: 18ff 65bc 6576 51be 3159 5fbd dee0 003b
00000040: 76db 8c3e e644 7fbd 25c8 a1be dcb2 0e3e
00000050: 6f89 7abe 8c9e 6c3e cc59 143d fa71 47be
00000060: dd0d 03be d7ca c9bd 0f49 14be 7169 813c
00000070: 5fcd 2abd 06fa 063e 6ee2 39be cdcf 4e3e
00000080: bd5e bb3e f9cc 99be 0116 b13b 8a82 b33e
00000090: 733f 83bd c90f 83bd 79b5 223e 9318 5abe
000000a0: 1cc1 16be dbd1 5c3e d90f eabd 511f b33e
000000b0: 13c2 14bd 8d3e 25be 3e64 10be 1f14 5dbe
000000c0: b467 103e c152 b33d 1488 3b3e af71 4ebe
000000d0: e971 dc3d 3bb4 6abd 46f9 48be c2ea 5a3e
000000e0: 8137 5f3d 6a03 4f3d 69d6 f8bb 9e29 5d3e
000000f0: 5b3d aabe b990 523e 24d9 bbbd 97c1 a83e
00000100: a461 8ebe 45db f03d 35c1 9b3d bc9a 81be
00000110: 1bc1 323d 1fdc 583c 0c1a 933e 414c ffbd
00000120: 0a9f 3c3e 1a5f 8dbe 8845 5b3e 88c8 a2bd
00000130: eb54 393c c5a2 a1be 317f 88be ff9f 9f3d
00000140: eb21 793e ae4d c03e a7cf 1dbe f1cf d2bd
00000150: 21bc 493d 4ebe e6ba 6914 973e 2857 da3d
00000160: 8aed 233e 15f5 c8bc 14ad a8be 05f5 9abe
00000170: 6ff4 53be c724 fb3d 3d0c 99be c4c3 adbe
00000180: a23c 9d3e deaa 2ebe d4ef 85bd cdfe b1bd
00000190: a0d1 3d3e 3fe7 bdbd 5d2d 83bd 920f 69be
000001a0: 675a 7f3e f1a9 32be 1203 8f3e 8ab9 053e
000001b0: 47f3 98be 438f 84be 2c2f 86be 619b a93e
000001c0: d523 afbd 45a0 263d 19a3 2fbe 8852 623c
000001d0: cd6a 943d 96f5 49be e1ac 9b3e 0241 9cbd
000001e0: 2f5c bc3e a4ba 2fbe 0f32 b33e 749b 803e
000001f0: 7562 293e 80db b33e ee37 54be 8a3f 303d
00000200: b819 ab3e e7f4 53be 2487 2dbe 062a a73e
00000210: a22c b6bd 2b48 7f3e 10bb 80be e2fb 873d
00000220: e822 62be e727 0a3e 6896 633e a67e 143e
00000230: 0b7c 67be 3928 13bc 7a32 c4bd af82 12bd
00000240: 2617 353e bb27 8cbe eb8a 163e 1ded 1ebe
00000250: bb2d 4cbe 88cd 33be 88cc c23d 0f3e d33d
00000260: 494b 39be d24b 8abd 4c22 75be d763 3b3c
00000270: a3b8 10bd bda4 9abe a5fa 7abe eafe 8ebe
00000280: e996 42be 543f 8dbe 252b b63e 6ec5 69bd
00000290: 57df 343d 8ca4 883e 19e7 22bd 98c8 66be
000002a0: 3893 85be a727 04be 1c5f 35be d3aa 5dbe
000002b0: 88cb ad3e 9b47 123e 2bcb 9e3d 674b 9a3e
000002c0: ea32 babc 0a5d aa3e aeec 2d3e 7da0 8abe
000002d0: ebfe 4e3e 5b90 28be 21e9 7bbe cec9 453e
000002e0: f1b6 623e 4607 88bd d47a fbbd 2795 a93e
000002f0: c422 83be 0798 b33e ca4d d6bc 17d2 abbe
00000300: a13d 0e3d 7053 1b3e 5f0b 1ebe 6435 d9bd
00000310: 7577 66be 6c5d be3c 192b a5bd aeff 423e
00000320: 3bfc 313e 0d37 bd3d a16d 5cbe 99fe b13e
00000330: 99ef b93d b34b 993e 992f 2a3e d208 99bd
00000340: c7fd b3be f55d 45bd 0d19 1dbe 0de0 98bc
00000350: 3e6e b33e 3883 623d 7093 38be 091a 4fbe
00000360: 6e8b 283e af1f 583d e71e f13d d25f 343e
00000370: e56c 233e 926d c3bd 87d5 823e 3c9c aa3e
00000380: 518f c1bd 5b22 8b3d 5f4c 78be 3c23 54be
00000390: 2b9b 93be 25a7 4abd 465e bfbd 6eca a7be
000003a0: fa91 76be f4bd 283e 43b5 29bd bacf 193e
000003b0: fa90 7abe 2c84 8dbe dbed 113e 770a a4be
000003c0: 546b 453e edbb 843d e54d 223e 3b7f e9bd
000003d0: 2ff2 85be 17fc a2be 12c0 bfbe 66e6 6e3b
000003e0: c5c6 a1be 0778 cbbd 919d bbbc 2ce4 85be
000003f0: 6900 77be f586 9ebe 94ea 483d fcbd b73e

encoder.0.bias f4 [128]
0.1751038 0.24900283 -0.3326801 -0.30530694 0.11281437 -0.054284517 0.015946815 0.04647317
0.093752876 0.2790216 -0.29823998 0.011262749 -0.33577543 -0.121198274 0.19204584 0.04379636
-0.2872508 0.012228474 0.33400068 0.1359516 -0.09050783 -0.28414595 -0.116010875 -0.022058839
-0.079159945 0.20996234 0.10031516 -0.224113 -0.15495487 -0.13371104 0.3566059 -0.072149545
0.052914448 -0.08314746 0.12380969 0.31588268 0.20717041 -0.0071664383 -0.29458246 -0.24526516
0.26674074 -0.19630723 -0.1051391 -0.2806763 -0.06324789 0.0991341 -0.27630955 -0.28433928
0.31695485 0.17928687 0.19450004 -0.2901654 -0.102727756 0.32591912 0.023054076 -0.1917069
0.08941379 -0.0049823383 0.27780572 0.33718732 0.29157424 0.23341727 -0.28720984 0.23834568
0.11987927 -0.0451758 0.16154206 -0.29539284 0.08622799 -0.056479648 -0.14250886 0.15780054
0.2903398 0.06981169 -0.22039044 0.18465638 -0.20683047 -0.25835025 -0.1953531 -0.052597668
-0.31142277 -0.18320167 0.051786367 0.2769916 -0.23083903 -0.2012771 0.060223382 0.3639991
0.056719635 0.28295046 -0.28799126 0.29259613 -0.091214776 -0.2861928 -0.068527 0.27662057
-0.15237866 -0.04838881 -0.05746727 0.08188099 -0.31356308 0.2955017 -0.3136801 -0.12793167
-0.06111662 0.26641157 0.08071683 -0.26378214 0.375515 0.19245782 0.29660696 0.23583077
0.32645494 -0.28501132 0.37139893 -0.090903424 0.22503385 0.10261787 0.30999497 0.29093313
-0.09652317 -0.057691824 -0.03384353 0.023840819 -0.22876182 -0.2969744 0.3781937 -0.12482436
00000000: 694e 333e 99fa 7e3e 0c55 aabe 3151 9cbe
00000010: 380b e73d 7159 5ebd e5a2 823c a75a 3e3d
00000020: 8201 c03d ebdb 8e3e e9b2 98be 6587 383c
00000030: c2ea abbe cd36 f8bd aaa7 443e d063 333d
00000040: 8912 93be f059 483c 2302 ab3e e536 0b3e
00000050: 2b5c b9bd 947b 91be 1c97 edbd bdb4 b4bc
00000060: 9c1e a2bd 5e00 573e 0972 cd3d e17d 65be
00000070: 7dac 1ebe 8ceb 08be 0c95 b63e 24c3 93bd
00000080: d2bc 583d 3749 aabd ef8f fd3d 60bb a13e
00000090: 7b24 543e 71d4 eabb 83d3 96be ca26 7bbe
000000a0: 3e92 883e c304 49be 2b53 d7bd ceb4 8fbe
000000b0: 1c88 81bd d206 cb3d 7278 8dbe eb94 91be
000000c0: e847 a23e fa96 373e 052b 473e 8f90 94be
000000d0: ee62 d2bd dfde a63e e7db bc3c d04e 44be
000000e0: 941e b73d e242 a3bb 8d3c 8e3e d1a3 ac3e
000000f0: 3849 953e f004 6f3e 2b0d 93be e410 743e
00000100: 4383 f53d 420a 39bd 486b 253e bb3d 97be
00000110: 4d98 b03d 3457 67bd d8ed 11be 7796 213e
00000120: 6ba7 943e 6ef9 8e3d 08ae 61be 9016 3d3e
00000130: 5ecb 53be 7c46 84be a50a 48be a770 57bd
00000140: ce72 9fbe 3899 3bbe f11d 543d d8d1 8d3e
00000150: 1161 6cbe 961b 4ebe cbac 763d 175e ba3e
00000160: d952 683d e2de 903e 9773 93be 29cf 953e
00000170: d0ce babd dd87 92be e257 8cbd 36a1 8d3e
00000180: 2709 1cbe 5833 46bd cd62 6bbd 38b1 a73d
00000190: 578b a0be 004c 973e ae9a a0be 8500 03be
000001a0: 6c55 7abd 1967 883e de4e a53d 740e 87be
000001b0: 8143 c03e aa13 453e dedc 973e 9f7d 713e
000001c0: 1a25 a73e 01ed 91be 0028 be3e 932b babd
000001d0: 466f 663e 5129 d23d a9b7 9e3e 30f5 943e
000001e0: f1ad c5bd 434e 6cbd 839f 0abd d24d c33c
000001f0: 8a40 6abe 070d 98be 9ba2 c13e eaa3 ffbd

encoder.2.weight f4 [64, 128]
-0.003955689 -0.008203778 -0.043292742 0.06906279 0.07638971 -0.064758785 0.03801118 0.073485695
-0.039446693 0.07225005 0.07339665 -0.024858318 -0.0011241091 0.0754713 0.0074942433 0.014826269
-0.051629297 0.069587596 0.08282822 0.08251754 0.08607274 0.095184535 -0.04161991 0.07923251
-0.02922374 0.03774633 -0.0075105885 -0.08587727 -0.09977077 -0.08028276 -0.032887965 -0.039968405
0.07984426 -0.007898793 -0.046469416 0.13687842 0.048629556 -0.010995012 -0.011690747 -0.02924476
-0.010898711 0.12105357 -0.042220343 -0.08975622 -0.013096493 -0.040188503 0.07552401 -0.03689088
0.0627881 0.087408446 0.01849876 -0.01837765 -0.004969517 -0.083036855 -0.085507706 0.017616045
0.036947194 -0.10623728 0.05771307 0.036508165 0.07646845 -0.025053745 0.12996654 -0.016723488
0.01009622 -0.0013284018 0.03836763 -0.046422843 0.0408265 0.05400946 0.09207978 0.14021882
0.011601372 -0.076376624 0.069495715 -0.03164241 -0.014521038 -0.009097917 0.0770077 0.028975656
-0.08447214 0.079965435 0.0340861 0.005930719 -0.041207448 0.027987368 -0.031887796 0.11419365
0.055989422 -0.0709122 -0.050953317 0.040621467 0.05544283 -0.029819386 -0.08579138 0.0076458063
-0.019441042 -0.058940332 -0.012297425 0.05903682 0.0183649 -0.087532826 -0.047529235 -0.032487147
0.024766011 0.03821064 -0.029456371 0.06457371 0.06770345 0.029348202 0.07548928 0.04881888
0.011036984 0.012821487 0.031154977 0.04669295 -0.054021273 -0.058486197 -0.004962826 0.066509075
0.09875666 -0.001017719 0.05413645 -0.028002325 0.03281121 0.06477167 0.01694881 -0.05914009
0.054666508 0.0069362 0.002459759 0.0227683 -0.08541477 -0.0955083 0.049101133 0.0056590936
0.055795558 -0.021435339 -0.013028665 -0.028554134 0.028362436 0.0032884458 -0.083674975 0.04496072
0.05017457 -0.07901829 -0.070882045 -0.021029493 -0.041395642 -0.08363358 0.052117452 0.038418308
0.0641787 0.05433878 0.036485977 0.023587333 0.07719963 -0.08152818 -0.06521668 0.06430397
0.050205782 -0.055416122 -0.03502616 0.051816534 0.0519006 -0.058695756 0.06158586 0.06932441
-0.00053490483 -0.088221274 -0.012289879 -0.03844108 -0.0638458 -0.021711014 0.024544973 -0.10026848
0.05520538 -0.0022000142 -0.024557639 0.07075968 0.07997867 -0.02465418 -0.057890963 0.057768032
-0.005347986 0.0061212024 -0.048970044 -0.039230645 0.019810988 -0.0320205 -0.00059517863 0.045634132
0.0013432214 0.0023160202 -0.021701397 -0.0677571 -0.028575895 -0.029934205 -0.007616754 -0.08770148
0.007905047 -0.06026331 0.0077892984 0.0012913869 -0.07995883 0.052014768 -0.10027494 -0.09106163
0.069465525 0.020582708 0.04936679 0.07096641 0.013574838 -0.060645223 -0.06975134 -0.071047306
0.01794271 0.060613133 0.047730926 0.04147122 -0.02800371 -0.045764685 0.0059254253 -0.07488422
0.009726629 0.015841424 -0.094424635 0.051333595 -0.00037794275 -0.040696345 0.02933698 -0.07081807
0.016740557 -0.003011374 -0.05372232 -0.088071756 0.008744775 -0.07262513 -0.062760055 -0.041654978
-0.08889882 0.0060908077 -0.010823887 -0.051141847 0.013829861 -0.050613217 -0.06798974 0.007807294
-0.022973472 0.005480819 -0.059885748 -0.04478367 0.04119543 -0.06620004 -0.07515064 -0.042645592
00000000: b99e 81bb 2469 06bc bb53 31bd cb70 8d3d
00000010: 3572 9c3d 41a0 84bd 9cb1 1b3d ab7f 963d
00000020: db92 21bd d6f7 933d fc50 963d aca3 cbbc
00000030: d856 93ba b290 9a3d 4592 f53b e1e9 723c
00000040: 3e79 53bd f183 8e3d d8a1 a93d f5fe a83d
00000050: e846 b03d 1cf0 c23d a479 2abd a744 a23d
00000060: a066 efbc e59b 1a3d 621b f6bb 6ce0 afbd
00000070: 9e54 ccbd 4a6b a4bd 88b5 06bd e9b5 23bd
00000080: 6385 a33d f069 01bc b756 3ebd db29 0c3e
00000090: c92f 473d 6c24 34bc 8c8a 3fbc b592 efbc
000000a0: 8290 32bc efea f73d 3def 2cbd 1cd2 b7bd
000000b0: ac92 56bc b39c 24bd 55ac 9a3d e41a 17bd
000000c0: 0c97 803d 3303 b33d b68a 973c ba8c 96bc
000000d0: 54d7 a2bb 3a0f aabd aa1e afbd 864f 903c
000000e0: f155 173d ee92 d9bd 8a64 6c3d 9689 153d
000000f0: 7e9b 9c3d 833d cdbc f315 053e b2ff 88bc
00000100: 9e6a 253c c51d aeba 6027 1d3d e125 3ebd
00000110: b039 273d 0639 5d3d 5394 bc3d 8695 0f3e
00000120: ae13 3e3c 596b 9cbd c553 8e3d 799b 01bd
00000130: a6e9 6dbc 6e0f 15bc 37b6 9d3d 5b5e ed3c
00000140: bbff acbd ebc4 a33d de9d 0b3d 7a56 c23b
00000150: 24c9 28bd c445 e53c c79c 02bd 5cde e93d
00000160: 2a55 653d 6a3a 91bd 6db4 50bd b262 263d
00000170: 0518 633d c947 f4bc 64b3 afbd ac89 fa3b
00000180: d242 9fbc 6b6b 71bd 247b 49bc 98d0 713d
00000190: fd71 963c 6944 b3bd 04ae 42bd 3e11 05bd
000001a0: 17e2 ca3c c382 1c3d 7d4e f1bc 393f 843d
000001b0: 1ba8 8a3d a46b f03c 209a 9a3d 4ef6 473d
000001c0: 77d4 343c 3711 523c b938 ff3c 1b41 3f3d
000001d0: 6945 5dbd 398f 6fbd 349f a2bb e935 883d
000001e0: ef40 ca3d fc64 85ba 2fbe 5d3d 2265 e5bc
000001f0: 0c65 063d 02a7 843d 3bd8 8a3c e13c 72bd
00000200: fde9 5f3d 1049 e33b e833 213b 9684 ba3c
00000210: f0ed aebd db99 c3bd 451e 493d eb6f b93b
00000220: e289 643d 2a99 afbc 2f76 55bc 5cea e9bc
00000230: 5758 e83c f782 573b c95d abbd bb28 383d
00000240: da83 4d3d 57d4 a1bd 9b2a 91bd 0b46 acbc
00000250: 7a8e 29bd 1548 abbd 1c79 553d 845c 1d3d
00000260: 1f70 833d 5792 5e3d 5272 153d 393a c13c
00000270: d71a 9e3d 3ff8 a6bd 5390 85bd cdb1 833d
00000280: 94a4 4d3d 04fc 62bd 9777 0fbd 933d 543d
00000290: b995 543d f66a 70bd 7441 7c3d f5f9 8d3d
000002a0: db38 0cba 5bad b4bd 7d5b 49bc 6574 1dbd
000002b0: 96c1 82bd 4cdb b1bc 8a12 c93c 9059 cdbd
000002c0: 091f 623d 1d2e 10bb 1a2d c9bc 73ea 903d
000002d0: dbcb a33d 90f7 c9bc 131f 6dbd 2c9e 6c3d
000002e0: 283e afbb 5e94 c83b d094 48bd 50b0 20bd
000002f0: a74a a23c ee27 03bd c305 1cba dbea 3a3d
00000300: 080f b03a 5fc8 173b 21c7 b1bc 3cc4 8abd
00000310: ff17 eabc 9438 f5bc f795 f9bb d59c b3bd
00000320: 2c84 013c a9d6 76bd 5f3d ff3b c143 a93a
00000330: 74c1 a3bd 700d 553d f35c cdbd 857e babd
00000340: f143 8e3d 119d a83c d534 4a3d d656 913d
00000350: ff68 5e3c 2067 78bd cad9 8ebd 4081 91bd
00000360: 97fc 923c 7a45 783d 8181 433d badd 293d
00000370: 0968 e5bc c073 3bbd 122a c23b e65c 99bd
00000380: 705c 1f3c e0c5 813c b461 c1bd 2d43 523d
00000390: 9e26 c6b9 36b1 26bd 1b54 f03c 1009 91bd
000003a0: 7e23 893c 795a 45bb ef0b 5cbd f75e b4bd
000003b0: 3f46 0f3c 7cbc 94bd 5888 80bd 699e 2abd
000003c0: 9610 b6bd 6695 c73b ac56 31bc 1d7a 51bd
000003d0: a496 623c ce4f 4fbd 343e 8bbd 54d4 ff3b
000003e0: dd32 bcbc 7198 b33b c24a 75bd 156f 37bd
000003f0: 8abc 283d e393 87bd 94e8 99bd 25ad 2ebd

encoder.2.bias f4 [64]
0.07794237 -0.040677577 -0.01685951 0.06531233 0.09492794 -0.024992058 0.042636953 -0.042498227
-0.018620906 0.031353157 -0.014738885 -0.06446661 0.052652672 -0.060808096 0.017163327 -0.04546496
0.09573655 0.0547087 0.07527752 0.06018516 0.043013662 0.031783316 0.0043756342 0.03908708
0.008475241 0.07447576 -0.018009134 0.07748241 -0.050593074 -0.034630757 0.021838866 -0.0784505
0.026061917 -0.025872432 0.07798544 0.064715 0.09968227 -0.052812118 -0.07360453 -0.055099815
-0.020541841 0.017567322 -0.04210821 -0.10256674 0.064757355 -0.019402334 0.103974536 -0.055543553
-0.041866593 0.0153108835 0.087173045 0.06091901 0.028268391 0.07229692 0.05320821 -0.07997325
-0.057948958 -0.061597798 -0.08001021 0.0837439 -0.043964364 -0.051825073 0.06840343 -0.049072504
00000000: 40a0 9f3d 889d 26bd f51c 8abc 79c2 853d
00000010: 9469 c23d 25bc ccbc 16a4 2e3d 9f12 2ebd
00000020: df8a 98bc 2b6c 003d 5d7b 71bc 1207 84bd
00000030: 54aa 573d e911 79bd 1b9a 8c3c 7739 3abd
00000040: 8611 c43d 3b16 603d 1a2b 9a3d b784 763d
00000050: 182f 303d 392f 023d 7b61 8f3b c619 203d
00000060: bddb 0a3c bf86 983d e487 93bc 19af 9e3d
00000070: af3a 4fbd fbd8 0dbd 6ce7 b23c a8aa a0bd
00000080: cd7f d53c 6cf2 d3bc d5b6 9f3d 4c89 843d
00000090: 3826 cc3d 8551 58bd f9bd 96bd 58b0 61bd
000000a0: 5d47 a8bc 58e9 8f3c a979 2cbd 830e d2bd
000000b0: 819f 843d a5f1 9ebc 9af0 d43d a381 63bd
000000c0: 4e7c 2bbd 80da 7a3c c887 b23d 3686 793d
000000d0: 1d93 e73c 6810 943d daf0 593d 04c9 a3bd
000000e0: e35b 6dbd f94d 7cbd 65dc a3bd ec81 ab3d
000000f0: fa13 34bd 8746 54bd 1917 8c3d 4000 49bd

encoder.4.weight f4 [32, 64]
-0.053119447 -0.08233939 -0.121860646 -0.015275318 -0.057318516 0.03928481 -0.09145849 0.12462336
0.01725405 0.019137299 -0.07164013 0.050502952 -0.016155368 -0.03908545 0.06923382 0.010945013
0.100923456 -0.07458516 0.045078915 -0.06774099 -0.041059494 0.09323891 0.11358185 0.015815107
0.10037815 -0.06292084 -0.072422005 0.052887127 -0.027434673 -0.04369368 -0.0012706369 -0.006144777
-0.027199669 0.02987285 0.043067254 -0.003953686 0.06995049 0.15588637 -0.016089581 0.055826243
-0.028529383 -0.06396215 0.027132828 -0.07642577 0.10253297 0.023965742 0.11042055 -0.100359544
-0.034108955 0.1017177 -0.039114356 -0.008802613 0.004654642 0.02133185 0.0948513 0.05455728
-0.014970121 -0.08613655 0.0070000887 -0.021313736 -0.045924205 -0.10572903 -0.04334495 0.02356578
0.14265265 -0.027758082 0.0023733573 0.110554844 -0.07102749 -0.114382476 -0.078746006 0.110973716
0.1625849 -0.08051729 0.080474816 -0.09566308 0.09633492 -0.051521067 -0.087489806 -0.017573485
-0.027651882 0.04730668 0.025621805 -0.083298564 0.05259479 -0.022842364 0.061399728 0.087770216
-0.03740258 0.003815162 0.11174095 0.08861864 -0.08447396 -0.11863162 0.028225109 -0.035455823
0.14260438 0.08134225 0.076973714 0.111365065 -0.10039312 -0.0699776 0.112978235 -0.074945174
0.11985427 0.07179603 0.026878333 -0.0054141735 -0.056541838 -0.013691186 -0.004585061 0.069756284
0.13232307 -0.03120511 0.058001436 -0.094762124 -0.011884134 0.08672741 0.05448371 -0.08184626
0.07330713 0.018109769 -0.102288425 0.119211964 -0.026521096 0.15285271 0.12021699 0.112228826
0.075357795 0.12157307 -0.063350886 0.09623889 -0.10599661 -0.007081881 -0.058385808 0.0019973528
0.007041611 0.062622726 -0.11689867 -0.05113382 0.09990184 -0.05066859 0.11967213 0.08713212
0.03295687 -0.020553084 0.060557753 -0.083711304 -0.061056454 -0.04786984 -0.06258532 -0.08931859
-0.042704303 0.13313913 0.12632334 0.11107729 -0.060357805 -0.101220936 -0.09786126 -0.04821895
0.121916436 0.0359897 0.025015088 0.03997897 -0.030289136 -0.014781102 -0.028313149 0.0076322122
0.13032582 0.09794264 0.02924049 -0.0806211 0.01192352 -0.08215558 -0.09110895 -0.01980861
-0.0583128 0.06399608 0.09820813 0.07929183 0.09905781 -0.07621997 0.08892089 0.061268765
0.12090334 0.096509516 -0.04079077 0.13367473 0.08426407 -0.022588084 -0.08098939 -0.049112596
-0.011163382 -0.06482684 0.038392734 0.054825768 0.028232858 0.11778304 0.026906716 0.015352244
0.06323477 -0.060231343 -0.11098723 0.11363769 0.14417036 0.0063629607 0.018647972 0.0014773237
0.028160963 0.0040824683 -0.010046652 -0.08707329 0.14281417 -0.030881552 0.024563527 0.115785174
0.065429024 0.050506603 0.12929147 -0.006560828 0.04635379 -0.006268805 -0.026204422 -0.09675597
0.022804812 0.08733022 0.086555846 0.01165305 0.13616043 -0.03348442 -0.107879825 0.08773739
0.0036917867 0.03057795 0.030085841 0.034867845 0.052863788 0.052712683 0.14795831 0.050120827
-0.03825652 0.09413234 -0.06012706 -0.05264763 -0.08119175 0.01015079 -0.06744591 0.095244355
0.044213668 0.054889735 -0.018999156 -0.04909342 0.0684376 -0.102179885 -0.057976644 -0.0720038
00000000: c793 59bd 8ea1 a8bd 1392 f9bd 5445 7abc
00000010: d2c6 6abd 1ce9 203d 974e bbbd 883a ff3d
00000020: 5e58 8d3c d3c5 9c3c 0fb8 92bd 2fdc 4e3d
00000030: 4358 84bc 1118 20bd 76ca 8d3d b652 333c
00000040: f5b0 ce3d 1bc0 98bd aba4 383d cabb 8abd
00000050: 002e 28bd 0bf4 be3d 9a9d e83d af8e 813c
00000060: 0f93 cd3d a4dc 80bd fd51 94bd 2ca0 583d
00000070: aebe e0bc 25f8 32bd 808b a6ba 205a c9bb
00000080: d7d1 debc e8b7 f43c 4a67 303d ec8d 81bb
00000090: 3442 8f3d ada0 1f3e 4cce 83bc 0faa 643d
000000a0: 74b6 e9bc 96fe 82bd aa45 de3c 1d85 9cbd
000000b0: cefc d13d ce53 c43c 2b24 e23d 4e89 cdbd
000000c0: d5b5 0bbd 5f51 d03d 6036 20bd d638 10bc
000000d0: f885 983b 22c0 ae3c 6641 c23d 7477 5f3d
000000e0: 3d45 75bc 5c68 b0bd 0061 e53b 259a aebc
000000f0: 051b 3cbd 7688 d8bd 798a 31bd 060d c13c
00000100: 8913 123e eb64 e3bc 548a 1b3b 946a e23d
00000110: dc76 91bd 5c41 eabd 9645 a1bd 3046 e33d
00000120: a87c 263e 40e6 a4bd fbcf a43d 01eb c3bd
00000130: 3e4b c53d c107 53bd db2d b3bd 45f6 8fbc
00000140: 3386 e2bc a6c4 413d d2e4 d13c 7098 aabd
00000150: a26d 573d e91f bbbc 487e 7b3d dfc0 b33d
00000160: 7333 19bd cc07 7a3b 70d8 e43d b17d b53d
00000170: af00 adbd 23f5 f2bd 5838 e73c 203a 11bd
00000180: e206 123e c496 a63d 65a4 9d3d 5e13 e43d
00000190: e89a cdbd 6a50 8fbd 2261 e73d db7c 99bd
000001a0: 2876 f53d cc09 933d f32f dc3c 6169 b1bb
000001b0: 6a98 67bd ff50 60bc 483e 96bb 62dc 8e3d
000001c0: b37f 073e dca1 ffbc ea92 6d3d a512 c2bd
000001d0: acb5 42bc 249e b13d 502a 5f3d 039f a7bd
000001e0: 0c22 963d f05a 943c 987c d1bd 6725 f43d
000001f0: c542 d9bc 6c85 1c3e 5334 f63d 3ad8 e53d
00000200: 3055 9a3d 4dfb f83d 1cbe 81bd e518 c53d
00000210: c014 d9bd 200f e8bb f525 6fbd 05e6 023b
00000220: 50bd e63b 5840 803d 9268 efbd b271 51bd
00000230: 5699 cc3d de89 4fbd a916 f53d 5372 b23d
00000240: c8fd 063d f15e a8bc 680b 783d d570 abbd
00000250: 5516 7abd 2a13 44bd bb2c 80bd aaec b6bd
00000260: b5ea 2ebd a055 083e e85a 013e 7d7c e33d
00000270: bf39 77bd ec4c cfbd 7c6b c8bd 3c81 45bd
00000280: 53af f93d f069 133d 71ec cc3c fdc0 233d
00000290: ec20 f8bc 6f2c 72bc faf0 e7bc a317 fa3b
000002a0: 2274 053e 2796 c83d c189 ef3c ad1c a5bd
000002b0: de5a 433c 2f41 a8bd 5497 babd ab45 a2bc
000002c0: 67d9 6ebd 6010 833d 5821 c93d c163 a23d
000002d0: d2de ca3d 3719 9cbd 281c b63d f5f4 7a3d
000002e0: 2c9c f73d c8a6 c53d 3914 27bd 07e2 083e
000002f0: a492 ac3d a50a b9bc c4dd a5bd 4a2a 49bd
00000300: 9ee6 36bc efc3 84bd b341 1d3d fc90 603d
00000310: 9848 e73c 3c38 f13d 796b dc3c fa87 7b3c
00000320: 3b81 813d 24b5 76bd 464d e3bd e1ba e83d
00000330: 65a1 133e 6280 d03b a2c3 983c c2a2 c13a
00000340: d2b1 e63c 3ac6 853b b69a 24bc 7b53 b2bd
00000350: e13d 123e 4ffb fcbc 7339 c93c c720 ed3d
00000360: a7ff 853d 03e0 4e3d fc64 043e 37fc d6bb
00000370: 79dd 3d3d 8c6a cdbb a8aa d6bc fe27 c6bd
00000380: 28d1 ba3c 30da b23d 3144 b13d 6fec 3e3c
00000390: a46d 0b3e f626 09bd 19f0 dcbd a9af b33d
000003a0: e7f1 713b 9c7e fa3c 9576 f63c 96d1 0e3d
000003b0: b387 583d 41e9 573d 6282 173e 7f4b 4d3d
000003c0: deb2 1cbd 75c8 c03d cb47 76bd 0ba5 57bd
000003d0: dc47 a6bd 804f 263c 1521 8abd 790f c33d
000003e0: 6419 353d 0fd4 603d 1ea4 9bbc 2f16 49bd
000003f0: 0329 8c3d b043 d1bd eb78 6dbd ba76 93bd

encoder.4.bias f4 [32]
0.12798747 0.027206648 0.097036555 0.13115418 0.11610286 0.10365879 -0.073531955 0.14791107
-0.04335527 0.043033008 0.013087045 -0.07257897 -0.13082331 0.010256003 0.04671134 0.081686415
-0.10686766 0.13347828 0.05775676 -0.052866384 0.0705167 -0.021942731 0.084350586 -0.0944642
-0.07582223 -0.06914758 0.10602212 0.08521086 -0.09105496 -0.02287964 0.037509672 0.10025995
00000000: 260f 033e 7ae0 de3c 1abb c63d 484d 063e
00000010: 56c7 ed3d 0f4b d43d ec97 96bd 0076 173e
00000020: 4c95 31bd 6143 303d 0c6b 563c 48a4 94bd
00000030: 8cf6 05be cb08 283c 6454 3f3d 354b a73d
00000040: 6fdd dabd 88ae 083e 5a92 6c3d 6c8a 58bd
00000050: 0f6b 903d 3ec1 b3bc 00c0 ac3d 7276 c1bd
00000060: af48 9bbd 3f9d 8dbd 2022 d93d 0883 ae3d
00000070: 067b babd 156e bbbc bea3 193d 1755 cd3d

decoder.0.weight f4 [64, 32]
-0.0155455265 -0.06934656 0.10727345 -0.16342366 -0.03047021 -0.003942122 0.10762785 0.056129582
-0.039991066 0.0896996 -0.06932979 0.17821696 -0.04358704 -0.08408827 0.09671718 -0.21510954
0.13406746 0.037416603 0.11688187 0.031079542 -0.13815038 -0.032355122 -0.10237117 -0.15134478
0.038846493 -0.13782206 -0.15179865 -0.12601666 -0.025501594 0.031853277 0.14026925 0.064337626
-0.049683873 0.08120223 0.03818085 -0.0017070225 -0.019798735 0.016640129 -0.09170148 0.20112534
-0.03265409 0.0652024 -0.0011875824 0.15536617 0.1321515 0.11003708 -0.04152431 0.13044602
0.067686304 0.06914521 -0.15171497 0.10318081 -0.08339325 0.034240875 0.1437251 0.05843095
-0.15548587 -0.10851186 0.047052816 0.029269002 -0.06438964 0.1898827 0.099955045 0.071382344
0.18003485 0.10955741 -0.1354778 0.15105256 0.12349777 0.13293856 0.15308504 0.09808542
0.118769415 0.11996681 0.07357214 0.10005974 -0.10753166 0.067043476 -0.122016385 -0.0156281
0.14602019 0.1545037 -0.13336071 0.0898684 0.027460428 -0.054634437 -0.1180635 0.2196408
-0.0705016 -0.0015943869 0.16733879 -0.07237584 0.06706286 -0.097689 0.045523867 0.02073168
-0.12679507 -0.1541377 -0.037791222 -0.1237627 -0.08592718 -0.08748136 0.059543278 0.06359314
-0.09450169 0.18468161 -0.036007147 0.1621318 0.07662633 0.15307336 -0.13744532 0.028263677
0.16886102 0.1139195 0.0821027 0.05060075 0.13035165 0.043981444 0.1597018 0.14407673
0.023245081 0.00058638613 -0.104366876 0.20485409 0.060139485 -0.10380054 -0.1171313 -0.10551574
0.16142702 0.088712834 0.095365725 0.08773224 -0.08457427 -0.16266552 0.08955691 -0.03861765
0.08203351 -0.067582674 0.084569685 0.11178491 -0.0028909494 0.1377248 0.07921915 -0.010655441
0.14548683 0.08142374 -0.098466 0.15512227 -0.037331622 -0.10643224 -0.06316535 0.09368087
-0.032325413 -0.09814332 -0.06269682 -0.06740336 0.012738595 0.182389 0.020175038 0.030468712
-0.017545858 0.12894256 0.13144843 0.13612545 0.005904966 0.051683582 -0.091420375 -0.1391787
-0.006662637 -0.024011081 -0.040374864 -0.0086727375 0.16603959 0.008426625 -0.17169777 -0.1251033
0.03864645 -0.14248909 -0.17424814 -0.15922584 0.14690262 -0.08089135 0.05177759 -0.08804759
0.07399435 0.12892446 -0.1481858 0.08083513 -0.07609188 -0.11215234 -0.034086157 0.037953217
0.15106311 0.14121638 -0.15539417 0.03763522 0.17061688 0.027282128 0.14741951 -0.15203464
-0.16691972 0.18046375 0.14384022 0.19318482 0.046276536 0.004436701 0.20122379 0.15878303
-0.11989589 0.15370788 0.021171894 0.010194379 0.055873703 -0.018861832 -0.071248725 0.12293327
-0.04393285 0.14398953 0.15079723 -0.017811732 0.20206767 -0.11069652 -0.10223297 -0.07686191
-0.06633715 -0.1620761 0.023429673 -0.093023084 -0.014128559 0.018893512 -0.038284086 0.17822112
-0.055100583 -0.07640481 -0.0023816552 0.19937193 -0.06193473 0.16693142 -0.11398177 0.17128436
0.1152547 -0.115665875 -0.09091207 -0.004903629 0.11925836 -0.1693064 0.11863421 0.070363455
-0.09984824 -0.027429577 0.13257523 -0.10153642 -0.11695535 0.0607639 -0.018837735 0.20350535
00000000: aab2 7ebc 9205 8ebd 2fb2 db3d 8858 27be
00000010: a99c f9bc eb2c 81bb fd6b dc3d 22e8 653d
00000020: accd 23bd 6db4 b73d c7fc 8dbd 827e 363e
00000030: 5388 32bd 7936 acbd a813 c63d ad45 5cbe
00000040: fb48 093e 2742 193d c35f ef3d 869a fe3c
00000050: 4b77 0dbe ce86 04bd faa7 d1bd 20fa 1abe
00000060: 801d 1f3d 3a21 0dbe 1b71 1bbe 830a 01be
00000070: b8e8 d0bc 9578 023d bea2 0f3e 72c3 833d
00000080: 5181 4bbd 5b4d a63d 8663 1c3d 2cbe dfba
00000090: f530 a2bc e150 883c fccd bbbd cdf3 4d3e
000000a0: 4cc0 05bd d688 853d a7a8 9bba 4f18 1f3e
000000b0: b952 073e 1f5b e13d 6515 2abd a493 053e
000000c0: 1e9f 8a3d 019c 8d3d 2b5b 1bbe 7650 d33d
000000d0: 15ca aabd 2940 0c3d ac2c 133e 4b55 6f3d
000000e0: b037 1fbe 773b debd 74ba 403d 8cc5 ef3c
000000f0: b7de 83bd 9c70 423e 3bb5 cc3d e830 923d
00000100: 0e5b 383e a35f e03d b1ba 0abe 86ad 1a3e
00000110: 66ec fc3d 0c21 083e 53c2 1c3e 02e1 c83d
00000120: 613d f33d 29b1 f53d fdac 963d 1fec cc3d
00000130: 8f39 dcbd 174e 893d bae3 f9bd 8006 80bc
00000140: 5186 153e 3836 1e3e b68f 08be ec0c b83d
00000150: b1f4 e03c 5cc8 5fbd 47cb f1bd 85e9 603e
00000160: 2563 90bd bffa d0ba dc5a 2b3e c939 94bd
00000170: 4158 893d 2c11 c8bd 3c77 3a3d 7cd5 a93c
00000180: 91d6 01be 46d6 1dbe f8ca 1abd 4c77 fdbd
00000190: 97fa afbd 6d29 b3bd a7e3 733d 1f3d 823d
000001a0: 1a8a c1bd 2d1d 3d3e 3b7c 13bd e105 263e
000001b0: 44ee 9c3d 43bf 1c3e 77be 0cbe 3a89 e73c
000001c0: e7e9 2c3e a04e e93d 7625 a83d bb42 4f3d
000001d0: e77a 053e e325 343d de88 233e da88 133e
000001e0: 786c be3c b5b7 193a 4dbe d5bd 45c5 513e
000001f0: d254 763d 6195 d4bd 89e2 efbd a318 d8bd
00000200: 204d 253e 13af b53d 1b4f c33d f6ac b33d
00000210: 4635 adbd ca91 26be 9d69 b73d 8a2d 1ebd
00000220: 2f01 a83d c968 8abd df32 ad3d 7def e43d
00000230: 1576 3dbb bb07 0d3e a63d a23d 2994 2ebc
00000240: 80fa 143e 7dc1 a63d 8ba8 c9bd 5fd8 1e3e
00000250: 0be9 18bd 25f9 d9bd d65c 81bd c2db bf3d
00000260: a767 04bd 5dff c8bd 3167 80bd c60a 8abd
00000270: 8ab5 503c 2fc4 3a3e 1f46 a53c 8599 f93c
00000280: 55bc 8fbc 8509 043e 6b9a 063e 7864 0b3e
00000290: 727e c13b 2ab2 533d 9b3a bbbd dc84 0ebe
000002a0: 4052 dabb e3b2 c4bc 1d60 25bd 1918 0ebc
000002b0: 4806 2a3e d40f 0a3c 8ad1 2fbe 141b 00be
000002c0: bd4b 1e3d a9e8 11be 1b6e 32be 190c 23be
000002d0: a46d 163e 5daa a5bd bd14 543d 4b52 b4bd
000002e0: 5a8a 973d c604 043e 05be 17be e38c a53d
000002f0: 0fd6 9bbd 20b0 e5bd ed9d 0bbd d574 1b3d
00000300: 4ab0 1a3e 079b 103e a61f 1fbe 6327 1a3d
00000310: 31b6 2e3e c57e df3c 24f5 163e f8ae 1bbe
00000320: 01ed 2abe 7dcb 383e da4a 133e 3ed2 453e
00000330: 778c 3d3d bf61 913b 9c0d 4e3e 0598 223e
00000340: fa8b f5bd 9965 1d3e ae70 ad3c 5306 273c
00000350: d3db 643d 2184 9abc daea 91bd 70c4 fb3d
00000360: eff2 33bd fe71 133e 976a 1a3e e9e9 91bc
00000370: d4ea 4e3e dbb4 e2bd 855f d1bd c769 9dbd
00000380: c6db 87bd 47f7 25be 96ef bf3c e382 bebd
00000390: 797b 67bc 91c6 9a3c c6cf 1cbd 997f 363e
000003a0: 26b1 61bd 207a 9cbd 8b15 1cbb 2828 4c3e
000003b0: 45af 7dbd 12f0 2a3e 466f e9bd 2b65 2f3e
000003c0: a80a ec3d 3be2 ecbd 1b30 babd 9fae a0bb
000003d0: ba3d f43d a85e 2dbe 7ef6 f23d b71a 903d
000003e0: 3c7d ccbd feb3 e0bc cdc1 073e 54f2 cfbd
000003f0: 4986 efbd 91e3 783d 9851 9abc b563 503e

decoder.0.bias f4 [64]
-0.04492261 0.15298621 -0.042672034 -0.078808345 0.10168068 -0.16230719 0.14295104 0.06890532
0.028594797 0.16685677 -0.15041687 0.014794327 -0.14557709 0.16161467 0.026243284 0.19489984
-0.1461991 0.08360007 0.2120758 -0.08773481 0.0073075467 -0.04970614 -0.14104375 0.02580017
-0.08327539 -0.06863737 0.09706228 -0.074016094 -0.13894318 0.19683896 0.05876036 -0.0009695982
0.0062224 -0.10789625 0.059236582 0.14579757 -0.13827804 -0.047262445 0.15535341 -0.040789902
-0.07698501 -0.065839455 -0.039538767 0.005771463 0.0423042 0.041516922 -0.11694058 0.15503073
0.027807146 -0.1364463 -0.050590754 0.052367654 0.020945225 0.023389248 0.07044182 0.024254309
-0.04277226 -0.08967521 -0.033312812 -0.02844291 0.031050013 -0.1183584 -0.09025646 -0.040890962
00000000: c500 38bd 6ba8 1c3e dfc8 2ebd 4566 a1bd
00000010: f63d d03d db33 26be c261 123e 3b1e 8d3d
00000020: a33f ea3c 80dc 2a3e e106 1abe e863 723c
00000030: 2912 15be 517e 253e 28fc d63c d393 473e
00000040: 38b5 15be 8336 ab3d 662a 593e 4fae b3bd
00000050: 2574 ef3b aa98 4bbd c66d 10be e15a d33c
00000060: 4a8c aabd c091 8cbd 97c8 c63d c095 97bd
00000070: 1f47 0ebe 2790 493e b4ae 703d a22c 7eba
00000080: 46e5 cb3b b6f8 dcbd 0fa2 723d f54b 153e
00000090: c298 0dbe 4496 41bd f714 1f3e 5013 27bd
000000a0: 51aa 9dbd d6d6 86bd 67f3 21bd 8a1e bd3b
000000b0: 2b47 2d3d a60d 2a3d 8b7e efbd 60c0 1e3e
000000c0: d0cb e33c 94b8 0bbe 4038 4fbd 777f 563d
000000d0: 5295 ab3c cf9a bf3c cd43 903d f9b0 c63c
000000e0: f731 2fbd a3a7 b7bd 0473 08bd 1b01 e9bc
000000f0: 995c fe3c e465 f2bd 61d8 b8bd 487d 27bd

decoder.2.weight f4 [128, 64]
-0.09806861 0.08579617 0.08931495 -0.038990065 -0.021580713 0.016939031 0.15817809 0.08819167
0.07478749 -0.062993184 -0.0722988 0.0097780675 -0.043088198 -0.032303672 0.05580836 -0.078413166
-0.06276305 -0.025570272 0.02306573 0.087214984 0.016238496 -0.06665498 -0.05568397 0.010361511
-0.036550805 0.11150152 -0.019631058 -0.0589219 -0.010378987 -0.11399117 0.03179523 0.12983792
0.11955404 0.10600778 -0.015226636 0.1020716 -0.102863304 -0.06297877 0.011727176 -0.07296985
-0.10518965 0.011094888 -0.07148272 -0.068489954 0.13485394 -0.017019134 0.08084666 -0.061041232
-0.060901128 -0.09014789 -0.026074143 0.039117955 0.10168213 -0.09400837 -0.029067483 0.116171174
0.07890153 -0.16392636 0.09455023 -0.10430497 0.09528484 -0.07392184 -0.036202446 -0.059503324
0.08157414 -0.0530711 -0.029657908 -0.11874662 -0.058204234 0.010558593 0.051607918 0.12385603
0.06809011 0.116050735 -0.09363208 -0.10515143 0.03890735 -0.09979736 -0.12518679 0.10494584
-0.01041976 0.018588707 0.043293517 0.16377471 0.104700685 0.05287867 -0.067865595 0.0032607054
-0.124518394 -0.061048485 -0.1612917 0.095715456 0.018616185 0.053203627 -0.0027650183 0.0035938737
0.07020997 0.12835559 0.066872686 -0.06044559 0.12940474 0.05227161 0.12757489 0.023170145
0.097185194 0.07506305 0.08590312 -0.032766283 0.051997244 0.011619255 0.072660215 -0.015683278
0.060231853 -0.10599883 0.103439964 -0.034125976 -0.035763673 0.0983403 0.05870925 0.025173519
-0.022619227 0.09279667 0.013808414 0.026307536 -0.06350757 -0.075841844 0.0023025423 -0.008555098
-0.0014066033 -0.06425674 -0.017841678 -0.10390302 -0.029498432 -0.026386797 0.07210217 -0.10018785
-0.09195372 -0.020136977 -0.0014257272 -0.109869406 0.11564259 -0.047013313 -0.10555913 0.0896298
-0.043850012 -0.14928934 -0.1329578 0.08071669 0.04019645 0.032202825 -0.008726329 -0.047138214
0.11164325 0.1113299 0.05478815 -0.119941905 0.06315914 -0.026261428 -0.09832481 0.0836827
-0.035199873 -0.11103213 -0.10263208 0.05934225 0.026066242 -0.1425922 0.059780832 -0.11712239
-0.10203223 -0.016565356 0.033681206 -0.025085628 -0.011520116 0.075064525 0.009401918 0.023472149
-0.120737664 0.03802742 0.053819425 0.025531737 -0.0634264 -0.08346707 0.00950709 -0.0763029
-0.0013876312 0.012812251 0.05602971 -0.10994835 0.08635301 -0.11568393 0.032292396 0.10913865
-0.021909485 0.11433994 -0.087048545 -0.08998169 -0.023148037 0.08135505 0.021881752 -0.11720184
-0.01529657 -0.0015737489 -0.07470031 -0.058675688 -0.05977729 0.0903851 -0.034157258 -0.10267187
0.05167829 -0.08892435 0.07307093 0.0446687 0.06385487 -0.005011484 0.019395873 -0.02944646
-0.06733954 -0.08204206 -0.023015404 -0.028670462 -0.027906701 -0.09034345 0.014727735 -0.06039042
0.10805594 -0.031386156 -0.08729914 -0.01883556 -0.036187667 -0.027545929 0.068484284 -0.1263042
0.02156289 -0.10952918 0.01941792 -0.04300329 0.09658569 0.104864374 0.02933883 0.054045063
-0.043771572 -0.061639756 0.0039410493 0.10600036 -0.0055116736 0.042717688 -0.10757808 0.021570165
0.030416206 -0.0042756638 -0.045329474 -0.034035105 -0.00489425 0.08615916 0.09852745 0.11694335
00000000: 32d8 c8bd e7b5 af3d c2ea b63d 0cb4 1fbd
00000010: 09ca b0bc b9c3 8a3c 70f9 213e d69d b43d
00000020: 2f2a 993d 9202 81bd 6511 94bd 3034 203c
00000030: 407d 30bd db50 04bd 4f97 643d 1597 a0bd
00000040: ea89 80bd bf78 d1bc 58f4 bc3c c59d b23d
00000050: 9806 853c 6882 88bd e014 64bd 54c3 293c
00000060: 4cb6 15bd e95a e43d 50d1 a0bc 1758 71bd
00000070: a00c 2abc 3474 e9bd b73b 023d 3bf4 043e
00000080: c0d8 f43d 9b1a d93d 2479 79bc ea0a d13d
00000090: ffa9 d2bd 03fb 80bd 5723 403c 3771 95bd
000000a0: ac6d d7bd 55c7 353c 8865 92bd 7644 8cbd
000000b0: 2717 0a3e b66b 8bbc ef92 a53d 5f06 7abd
000000c0: 7673 79bd 759f b8bd 7199 d5bc 263a 203d
000000d0: b83e d03d 7687 c0bd ee1e eebc 27eb ed3d
000000e0: 2097 a13d 50dc 27be 8da3 c13d d89d d5bd
000000f0: b324 c33d 5564 97bd 0449 14bd c2b9 73bd
00000100: 5810 a73d 1561 59bd 24f5 f2bc 6e31 f3bd
00000110: 9067 6ebd f3fd 2c3c d362 533d 3ba8 fd3d
00000120: d472 8b3d 02ac ed3d 2dc2 bfbd a259 d7bd
00000130: 505d 1f3d 8f62 ccbd f730 00be d8ed d63d
00000140: a4b7 2abc 5847 983c 8b54 313d 8fb4 273e
00000150: 506d d63d 4e97 583d 1efd 8abd 8fb1 553b
00000160: 8003 ffbd fa0d 7abd a729 25be 7706 c43d
00000170: f880 983c 0cec 593d 4f35 35bb 3287 6b3b
00000180: 3fca 8f3d a66f 033e 8cf4 883d cc95 77bd
00000190: ad82 043e c11a 563d fea2 023e 51cf bd3c
000001a0: 0809 c73d a8ba 993d faed af3d f035 06bd
000001b0: 10fb 543d b05e 3e3c e1ce 943d 387a 80bc
000001c0: adb5 763d ea15 d9bd 55d8 d33d aec7 0bbd
000001d0: ee7c 12bd a466 c93d 1c79 703d b238 ce3c
000001e0: f54b b9bc 2e0c be3d b03c 623c e782 d73c
000001f0: 4210 82bd f852 9bbd 40e6 163b af2a 0cbc
00000200: c65d b8ba 0a99 83bd b628 92bc 1bcb d4bd
00000210: b2a6 f1bc 2029 d8bc 4daa 933d 4a2f cdbd
00000220: 3b52 bcbd 4df6 a4bc 77df baba 3603 e1bd
00000230: 06d6 ec3d 0891 40bd 632f d8bd d48f b73d
00000240: 129c 33bd 4edf 18be 1726 08be cb4e a53d
00000250: 08a5 243d 1ce7 033d e0f8 0ebc 0014 41bd
00000260: 37a5 e43d ee00 e43d 8a69 603d 1aa4 f5bd
00000270: 9459 813d 3522 d7bc 855e c9bd d661 ab3d
00000280: be2d 10bd d064 e3bd c530 d2bd dc10 733d
00000290: df88 d53c b103 12be bfdc 743d dddd efbd
000002a0: 46f6 d0bd 12b4 87bc 4ef5 093d 6080 cdbc
000002b0: debe 3cbc 6ebb 993d 810a 1a3c aa48 c03c
000002c0: 4f45 f7bd a4c2 1b3d c271 5c3d ef27 d13c
000002d0: b3e5 81bd c8f0 aabd a0c3 1b3c b244 9cbd
000002e0: 2de1 b5ba 7aea 513c 697f 653d 9a2c e1bd
000002f0: d9d9 b03d b2eb ecbd 0845 043d 1684 df3d
00000300: 857b b3bc 0f2b ea3d 8246 b2bd 5248 b8bd
00000310: f4a0 bdbc 7a9d a63d 5c41 b33c 8507 f0bd
00000320: 779e 7abc 4046 ceba 7afc 98bd eb55 70bd
00000330: 08d9 74bd d31b b93d 7be8 0bbd a145 d2bd
00000340: 9dac 533d f81d b6bd 36a6 953d 87f6 363d
00000350: 58c6 823d 6037 a4bb 18e4 9e3c b439 f1bc
00000360: 50e9 89bd ab05 a8bd cd8a bcbc 51de eabc
00000370: 989c e4bc fd05 b9bd 994c 713c f25b 77bd
00000380: 6f4c dd3d c58e 00bd e4c9 b2bd 084d 9abc
00000390: 8539 14bd 00a8 e1bc 7d41 8c3d e355 01be
000003a0: a8a4 b03c d650 e0bd 5412 9f3c 3824 30bd
000003b0: b8ce c53d 22c3 d63d fc57 f03c 5b5e 5d3d
000003c0: d249 33bd f879 7cbd eb23 813b b716 d93d
000003d0: 459b b4bb bef8 2e3d e551 dcbd eab3 b03c
000003e0: 682b f93c de1a 8cbb 66ab 39bd 6568 0bbd
000003f0: f25f a0bb 3774 b03d c2c8 c93d ff7f ef3d

decoder.2.bias f4 [128]
-0.08161755 -0.05932566 -0.095670596 -0.041053776 -0.085036494 0.04342387 0.09747912 -0.03570354
0.0032078575 0.117191784 0.011480735 -0.0634005 -0.09004613 -0.030178366 0.023708973 0.08772891
0.035315383 -0.00741743 0.13508339 0.11034092 0.10119653 -0.08085347 0.05606717 -0.08838281
0.09677128 -0.052990194 -0.111640655 -0.09029498 -0.13794774 0.054155793 0.06870853 -0.043994844
0.03584006 -0.056620028 0.008506444 0.045793336 -0.0020441583 0.102494285 -0.12955564 0.031117633
0.033333186 0.14377826 -0.11627918 0.041329876 -0.072206914 -0.13496982 -0.024623761 0.07107049
-0.09005128 -0.06185758 0.017678473 0.09905378 0.06233959 -0.030299082 0.085235775 0.1141665
0.050419446 -0.0915861 -0.024870396 0.06333896 -0.09447643 -0.06721103 0.045423 0.015909567
0.11784945 0.04250459 0.04424105 0.10813083 -0.08680319 0.0100541515 0.10909795 0.016936596
0.051462498 -0.075056106 -0.007311655 0.015311718 0.06996736 -0.08528364 -0.11464889 -0.06531395
-0.08978158 0.048260607 -0.11212118 0.059484404 0.052371137 0.14623782 -0.08600524 0.12991805
0.092960075 -0.07475791 0.07958598 -0.05713771 -0.09425897 -0.08191666 0.080346115 -0.080724254
0.04518665 -0.092947885 0.14517991 0.03741685 -0.06281861 0.13968849 -0.03038449 -0.09645482
0.0032899058 0.1110098 0.11488666 -0.02134178 0.050840497 -0.016502421 0.11736748 0.08746461
0.093762085 -0.12993456 -0.02953777 -0.0002203557 0.12298741 0.14421232 0.12699407 0.059844047
0.09634873 -0.102581285 0.074447006 0.009626445 -0.0014933844 0.037628435 -0.13157545 0.010942522
00000000: 1a27 a7bd 77ff 72bd f2ee c3bd 0128 28bd
00000010: 9d27 aebd 3add 313d 22a3 c73d e03d 12bd
00000020: eb3a 523b 3f02 f03d b119 3c3c 1fd8 81bd
00000030: 1b6a b8bd 9f38 f7bc 5239 c23c 37ab b33d
00000040: dda6 103d ea0d f3bb 4d53 0a3e 6cfa e13d
00000050: 2040 cf3d 8196 a5bd b0a6 653d 0c02 b5bd
00000060: 0530 c63d 3f0c 59bd dba3 e4bd 93ec b8bd
00000070: 2c42 0dbe 77d2 5d3d 0fb7 8c3d f033 34bd
00000080: 07cd 123d 67ea 67bd 9d5e 0b3c cb91 3b3d
00000090: 49f7 05bb 86e8 d13d 3caa 04be 68ea fe3c
000000a0: 6188 083d 9c3a 133e c723 eebd 8449 293d
000000b0: 38e1 93bd 8735 0abe c5b7 c9bc 688d 913d
000000c0: ce6c b8bd 605e 7dbd 72d2 903c b5dc ca3d
000000d0: cc57 7f3d c835 f8bc 1890 ae3d 20d0 e93d
000000e0: 9f84 4e3d 7e91 bbbd 00bd cbbc dbb7 813d
000000f0: dc7c c1bd f0a5 89bd 780d 3a3d c854 823c
00000100: 0d5b f13d 4b19 2e3d 1a36 353d b273 dd3d
00000110: dfc5 b1bd 2bba 243c bf6e df3d 9ebe 8a3c
00000120: 57ca 523d 04b7 99bd 9c96 efbb 00de 7a3c
00000130: 0c4b 8f3d 30a9 aebd 0acd eabd 52c3 85bd
00000140: 68df b7bd eaac 453d ca9f e5bd eba5 733d
00000150: 1e83 563d 5ebf 153e 8423 b0bd 3d09 053e
00000160: da61 be3d ad1a 99bd f9fd a23d 3b09 6abd
00000170: d90a c1bd ecc3 a7bd 818c a43d c252 a5bd
00000180: a315 393d 765b bebd 0baa 143e 6942 193d
00000190: 0ba7 80bd 800a 0f3e e5e8 f8bc 1b8a c5bd
000001a0: 769b 573b 1b59 e33d b249 eb3d f5d4 aebc
000001b0: 203e 503d 1630 87bc 5d5e f03d a520 b33d
000001c0: 5606 c03d 910d 05be 32f9 f1bc 480f 67b9
000001d0: d3e0 fb3d 65ac 133e bc0a 023e 081f 753d
000001e0: 7c52 c53d 2316 d2bd ac77 983d 3db8 1d3c
000001f0: aabd c3ba 4620 1a3d b7bb 06be 4448 333c

decoder.4.weight f4 [8, 128]
0.027146047 -0.029374072 0.07374908 -0.07359423 -0.040422164 -0.031895444 -0.0014046873 0.020298842
-0.042714827 -0.021001035 -0.0258692 -0.07098245 0.033429723 -0.02340705 0.07280195 0.043808356
0.06636774 0.07896285 0.03065204 0.05322986 0.0042665065 0.08248236 -0.010378705 -0.05768558
-0.036124095 0.0697699 -0.0059620496 0.06949406 0.05079052 -0.073165365 0.06915228 0.024794742
-0.04134368 0.0832953 -0.06664707 -0.0788489 -0.0066843187 -0.06807271 0.016035372 0.006515582
0.02274989 -0.039617848 0.0016600464 0.0038100863 0.056754325 -0.011763729 0.05854259 -0.008650377
0.006644416 0.06511154 -0.020355962 -0.021979015 -0.08120932 0.051539842 -0.026591308 0.07809125
0.09379064 -0.06824775 0.07382822 0.07285811 0.055062916 -0.06260618 -0.022438442 -0.024693606
0.042154644 -0.07989492 0.075673945 -0.018385705 -0.066116214 0.0828738 0.07770477 -0.00027268383
-0.043267637 -0.047603652 0.03118697 -0.044936474 -0.044468913 -0.066720665 -0.0069833123 -0.025186075
-0.016472828 -0.07407459 0.081849046 -0.013809318 -0.050041962 -0.060378425 0.01168358 0.0052181864
0.026306273 -0.06973033 -0.051612105 0.028424213 -0.016725836 0.06651917 0.011423869 -0.07187178
0.036229003 -0.0037014552 0.07241064 0.005196596 0.073427126 0.023132693 0.009365859 0.07712319
0.08491557 0.061080668 0.032684807 -0.021352496 0.001010662 0.08260431 -0.06308789 0.08103083
-0.06692385 -0.06594897 0.015402997 -0.07467773 0.06906356 -0.057582192 0.016022664 0.050813846
-0.025705881 0.045304738 0.07509517 -0.05293275 -0.058740914 0.045715924 -0.07185157 -0.07341272
0.07058592 -0.06397053 -0.012280191 -0.056749992 0.107240364 0.029834844 -0.054468457 -0.051989224
-0.00021210423 0.039179515 -0.014790768 -0.0063398127 0.071021475 0.0984146 -0.01906335 0.0049962313
0.07424322 0.010797911 0.094669275 0.07946488 -0.018508632 -0.072584935 -0.03461332 0.050730146
0.104109906 0.07923454 0.059182215 -0.010383784 -0.062258553 -0.037073873 0.06442396 0.115260124
-0.042791657 0.007933402 0.037516735 0.08904385 0.024486141 0.0012776781 -0.03509338 -0.043761224
-0.03839557 0.02674196 -0.03361197 0.07333126 0.10043598 -0.047252554 0.022357106 0.06448527
0.09814968 0.032863174 -0.012586712 -0.037471212 -0.016692555 0.054546125 -0.10057829 -0.021383828
0.10293035 0.04405143 0.04673902 -0.05842515 -0.026149191 0.02068306 0.0036245752 -0.010245098
-0.045037135 0.047919255 -0.049581807 -0.06959564 0.095805325 -0.013164072 0.088911526 0.062192503
0.099048436 -0.07512226 -0.057890262 0.018281132 0.03367269 -0.067350216 0.015589101 -0.052592173
0.09142104 0.1013144 0.010783264 -0.015110114 0.028133055 -0.09822704 -0.05588949 0.07916576
0.08230633 -0.059029583 0.048831232 0.053264607 -0.019564807 0.08632347 0.044042125 0.09814861
0.06754386 -0.0036255673 0.06607713 0.07494084 -0.07264301 0.09311263 -0.07065931 -0.046418075
0.007850499 0.10895812 0.042644672 0.023496227 0.10718341 -0.010020697 0.08268347 0.07095456
-0.026247041 0.00281643 -0.015610643 0.015691696 0.09668677 0.10380949 -0.0725623 0.094941534
0.045461528 0.049564596 0.018260602 -0.026143044 0.0065646116 0.04942466 -0.050038867 -0.04073677
00000000: 6361 de3c e5a1 f0bc c209 973d 92b8 96bd
00000010: b691 25bd cca4 02bd 7c1d b8ba c249 a63c
00000020: bef5 2ebd 5d0a acbc a5eb d3bc 3f5f 91bd
00000030: 9bed 083d 24c0 bfbc 3019 953d 6470 333d
00000040: cfeb 873d 46b7 a13d fd19 fb3c 8e07 5a3d
00000050: 0dce 8b3b 83ec a83d 720b 2abc b747 6cbd
00000060: dcf6 13bd 85e3 8e3d 4c5d c3bb e752 8e3d
00000070: b809 503d b9d7 95bd b69f 8d3d 581e cb3c
00000080: fe57 29bd ba96 aa3d 427e 88bd 887b a1bd
00000090: 2108 dbbb b469 8bbd 9d5c 833c aa80 d53b
000000a0: fa5d ba3c 5346 22bd ea95 d93a a4b2 793b
000000b0: 3977 683d a8bc 40bc 5bca 6f3d 50ba 0dbc
000000c0: 67b9 d93b 3359 853d 8cc1 a6bc 560d b4bc
000000d0: 1251 a6bd 711b 533d 04d6 d9bc 4eee 9f3d
000000e0: 4f15 c03d 7ac5 8bbd 4033 973d a236 953d
000000f0: a789 613d ab37 80bd d3d0 b7bc 3f4a cabc
00000100: 59aa 2c3d f39f a3bd f1fa 9a3d 9e9d 96bc
00000110: f067 87bd bdb9 a93d ae23 9f3d 01f7 8eb9
00000120: 6839 31bd 0cfc 42bd d17b ff3c 4f0f 38bd
00000130: 0925 36bd d8a4 88bd 45d4 e4bb 0753 cebc
00000140: 06f2 86bc 6bb4 97bd 79a0 a73d 7a40 62bc
00000150: cdf8 4cbd 5e4f 77bd 7d6c 3f3c 52fd aa3b
00000160: 4180 d73c c6ce 8ebd 3767 53bd e5d9 e83c
00000170: 9f04 89bc 343b 883d 2e2b 3b3c 8331 93bd
00000180: dd64 143d 1d94 72bb 084c 943d 3548 aa3b
00000190: f660 963d c680 bd3c 4373 193c c3f2 9d3d
000001a0: 37e8 ad3d b92f 7a3d 81e0 053d 6eeb aebc
000001b0: 3078 843a 732c a93d 3934 81bd 7ef3 a53d
000001c0: 5f0f 89bd 4110 87bd da5c 7c3c a3f0 98bd
000001d0: 3271 8d3d 4edb 6bbd f641 833c 2e22 503d
000001e0: 2495 d2bc 7691 393d 7fcb 993d 03d0 58bd
000001f0: 509a 70bd 9f40 3b3d ea26 93bd 6859 96bd
00000200: 5a8f 903d fb02 83bd db32 49bc ae72 68bd
00000210: d6a0 db3d 3468 f43c 511a 5fbd a7f2 54bd
00000220: 4c68 5eb9 b37a 203d fa54 72bc 34be cfbb
00000230: b573 913d 988d c93d be2a 9cbc 6db7 a33b
00000240: d40c 983d b9e9 303c f7e1 c13d 7cbe a23d
00000250: 6a9f 97bc 69a7 94bd b2c6 0dbd 6aca 4f3d
00000260: 9337 d53d b845 a23d 0d69 723d bf20 2abc
00000270: d302 7fbd c6da 17bd b6f0 833d 800d ec3d
00000280: 4e46 2fbd 1afb 013c 26ab 193d 9f5c b63d
00000290: 2997 c83c c377 a73a 13be 0fbd f83e 33bd
000002a0: ac44 1dbd f411 db3c b4ac 09bd b32e 963d
000002b0: 61b1 cd3d e58b 41bd 4026 b73c da10 843d
000002c0: b302 c93d 899b 063d 7f38 4ebc 6a7b 19bd
000002d0: d3be 88bc c26b 5f3d fefb cdbd 232d afbc
000002e0: 26cd d23d 466f 343d 6a71 3f3d 364f 6fbd
000002f0: d436 d6bc 856f a93c 488a 6d3b 0edb 27bc
00000300: dc78 38bd fb46 443d 4b16 4bbd 2988 8ebd
00000310: 9535 c43d 1fae 57bc 3f17 b63d 91bd 7e3d
00000320: e8d9 ca3d b3d9 99bd 571e 6dbd 50c2 953c
00000330: 60ec 093d e9ee 89bd 6e69 7f3c e46a 57bd
00000340: f43a bb3d ed7d cf3d 4aac 303c 6990 77bc
00000350: 4b77 e63c 422b c9bd 61ec 64bd a821 a23d
00000360: 3990 a83d 01c9 71bd 4203 483d fd2b 5a3d
00000370: 6046 a0bc 5cca b03d 8465 343d 2302 c93d
00000380: 6f54 8a3d ed9a 6dbb 7253 873d 957a 993d
00000390: dcc5 94bd d6b1 be3d d4b5 90bd e120 3ebd
000003a0: 619f 003c 6f25 df3d 2eac 2e3d 297b c03c
000003b0: fa82 db3d d92d 24bc f355 a93d a050 913d
000003c0: 0904 d7bc db93 383b c8c3 7fbc df8b 803c
000003d0: b703 c63d 129a d43d 8b9b 94bd b570 c23d
000003e0: de35 3a3d 3f04 4b3d 4297 953c f029 d6bc
000003f0: f41b d73b 8371 4a3d 8ef5 4cbd 99db 26bd

decoder.4.bias f4 [8]
-0.017882947 -0.028927289 0.049423654 -0.014541375 -0.008335605 0.0034825683 -0.035846353 0.049214497
00000000: 427f 92bc ecf8 ecbc 7570 4a3d f33e 6ebc
00000010: 1092 08bc cd3b 643b a0d3 12bd 2495 493d
